model/keypoint_classifier/keypoint_classifier.tflite (tflite, 6892 bytes, 6 tensors)

sequential/dense/BiasAdd/ReadVariableOp f4 [20]
000000 69 cf 7a 3f 39 84 51 bf dc 41 13 bf 62 b0 b2 3e
       0.9797273 -0.8184238 -0.5752237 0.34900194
000010 ba 50 98 3f 3a 72 54 bf 82 80 9f bf 52 23 87 bf
       1.1899636 -0.82986796 -1.2461092 -1.0557654
000020 44 9b 5b 3b 9f c1 a1 bf 7b 87 1d bf 67 77 48 bf
       0.0033509294 -1.2637213 -0.6153485 -0.78307194
000030 b7 80 b3 be 6e 7d 2c bf 2f fc 93 be 72 cb 08 bf
       -0.3505914 -0.6737889 -0.28903338 -0.5343543
000040 86 3a 37 be 11 7e e3 be f5 8f 3f bf 32 f2 2a bf
       -0.17893419 -0.4443212 -0.74829036 -0.6677581

sequential/dense_2/BiasAdd/ReadVariableOp f4 [12]
000000 8e 17 96 be fa 45 b9 be 22 db 03 3f e9 40 8f be
       -0.29314846 -0.361862 0.51506245 -0.2797921
000010 d9 c3 71 3f 44 4d 65 3e e4 e4 22 3e 2f 5f 2e 3f
       0.94439465 0.22392756 0.15907627 0.6811399
000020 31 25 64 3d c4 ac cb bf 20 99 48 3e 77 46 e0 bb
       0.05569953 -1.5912099 0.19589663 -0.0068443376

sequential/dense_1/BiasAdd/ReadVariableOp f4 [10]
000000 34 95 af 3f dc 36 30 3f 74 8d 59 3f 1d 75 7c bf
       1.3717408 0.6883371 0.84981465 -0.986162
000010 cb b0 12 3f 3c e5 33 3f 35 9b 42 3f 7f 89 8a 3e
       0.57301015 0.7027166 0.7601808 0.27058026
000020 cc 51 31 3f fd ec df 3e
       0.6926544 0.43735495

sequential/dense/MatMul f4 [20, 42]
000000 de 4c 91 be e6 fc 89 3e f6 2f fc 3e b0 57 05 40
       -0.28378958 0.2695076 0.4925534 2.083477
000010 82 5a 93 3d 86 cd ae 3f 9a dd 61 3c 7b 0c 89 3f
       0.07194997 1.3656471 0.013785744 1.0706934
000020 f3 e7 98 be 61 4c be 3f 59 6d 30 bd b9 c7 87 3e
       -0.29864463 1.4867059 -0.043073032 0.26519564
000030 3d c4 44 bc 43 b0 32 3e 6e ac 55 bd b7 e2 c2 bd
       -0.0120096775 0.17450051 -0.052166395 -0.09515899
000040 80 88 8b 3c dc 38 d8 be c3 70 e5 bb 5f 87 2c 3e
       0.017032862 -0.4223088 -0.0070019676 0.16848515
000050 a7 96 db 3d 1c 35 e2 3d cc e1 23 3e e9 21 b9 3d
       0.10722094 0.11045286 0.16004103 0.09039671
000060 8a c0 f5 3d 4c 01 90 3d a0 41 76 be b9 b2 cc 3d
       0.119996145 0.07031497 -0.24048471 0.09995026
000070 0d 17 b4 3c eb ad 80 3d d9 e0 84 3e f6 8f a2 3d
       0.021983648 0.06283172 0.25952795 0.079376146
000080 63 5e 4f 3e aa dd f2 3d f6 5f 0c 3e 23 33 cd bc
       0.2025085 0.11858685 0.13708481 -0.025048798
000090 69 59 3a bd 2f 00 7e 3d 42 14 e0 3d 02 49 14 3e
       -0.045495424 0.062011894 0.10941364 0.14480975
0000a0 e1 b0 a9 3e d6 b4 ad 3d 6e 74 9b bd d6 4d 02 3e
       0.3314276 0.08481757 -0.075905666 0.12725005
0000b0 4f bd 43 be 1b b0 17 bd af 4f 6d 3d 80 23 0a be
       -0.19115184 -0.03703318 0.05793732 -0.13490105
0000c0 ac 33 01 be 4b e4 e9 bd 6e df c2 bd ad 7d c9 bc
       -0.12617368 -0.114204966 -0.09515272 -0.02459606
0000d0 a9 13 93 3d a4 7a c0 3b df 44 a7 3c a1 02 5b 3d
       0.07181484 0.005873995 0.020418582 0.053469304
0000e0 87 32 66 3d 7c c2 3c 3e 8e a7 a4 3d d5 a8 2d 3e
       0.05620053 0.18433565 0.08039771 0.16958936
0000f0 b4 65 9a 3d 5b 9f 27 3c 7a e1 b5 3b f8 ac 05 3d
       0.075389296 0.010230864 0.0055505605 0.03263566
000100 da 1b ca bd f2 46 02 3e 29 d3 82 be 52 db 4c 3e
       -0.098685935 0.12722376 -0.25551727 0.20005539
000110 49 ec 80 bc f9 9d 1d bd 47 9e c1 bc 03 76 88 bd
       -0.01573767 -0.038480733 -0.023635043 -0.06663134
000120 0b 22 53 bd 5c ce d3 bd 1f 39 12 be bc 3f 77 bb
       -0.051546138 -0.10342094 -0.14279602 -0.0037727198
000130 3f d4 11 bd 85 82 55 be 05 db 67 bc 74 b3 f7 be
       -0.035602804 -0.2085057 -0.014151339 -0.483791
000140 83 6f c5 bc c5 b3 ab bf d3 4b 14 be 74 89 3d bf
       -0.024101024 -1.3414236 -0.1448205 -0.7403786
000150 e4 67 60 3e a3 c3 88 be 0b 7d 82 be 10 f7 8f be
       0.21914631 -0.2671176 -0.25486025 -0.2811818
000160 15 0e 3b bd 29 28 7e be 39 1a 33 3d 21 cf af 3d
       -0.045667727 -0.24820007 0.04372618 0.085844286
000170 09 5c ce 3d 76 b4 d4 3d 9c 20 b4 3d c8 0a 8b bc
       0.10076148 0.10385983 0.08795282 -0.016972914
000180 76 69 59 bd 56 51 2f 3d b9 3b 04 3c cf 3d 2f 3d
       -0.05307909 0.042802177 0.00807088 0.042783555
000190 76 77 12 3d 1f 21 07 ba f5 a0 98 3d 56 75 d6 bb
       0.035758458 -0.0005154777 0.07452575 -0.0065447493
0001a0 c4 01 d4 bd bb ab b0 3d 5a 83 7d bd d9 56 e5 3d
       -0.10351899 0.08626505 -0.061892845 0.111982055
0001b0 df a9 e4 bb a1 f8 c3 3d 6e 63 ea 3d a0 98 26 3d
       -0.006978258 0.095689066 0.11444746 0.0406729
0001c0 b4 89 05 be 2a e0 c8 3d f9 0a 60 bd 24 f0 fa 3d
       -0.13040811 0.09808381 -0.054697964 0.122528344
0001d0 c0 6a b5 3b 5c c7 01 3e 69 26 32 3d 37 aa 90 3d
       0.005536407 0.12673706 0.043493662 0.07063716
0001e0 45 ad cc bc 75 6a c1 3d d9 e3 09 bd 2d 33 0d 3e
       -0.024984965 0.09444133 -0.033664558 0.13789053
0001f0 11 3d 87 3c 38 56 e0 bf 94 06 69 3e f8 82 b7 bd
       0.01650861 -1.7526312 0.22756416 -0.08960527
000200 a8 9f 6e 3f 4a 91 1f 40 1a 7e e4 3e 9b 53 a4 3f
       0.93212366 2.4932427 0.44627458 1.2838014
000210 91 70 d7 3e 23 10 5e 3f 9b 61 bd 3e 15 8e 39 3f
       0.4207807 0.8674337 0.3698853 0.72482425
000220 56 0b d3 bc a7 1b 0b 3f 28 41 88 3e 64 d7 63 3e
       -0.025762241 0.5433907 0.2661221 0.22250134
000230 3b 5f 9c 3e 1a a3 53 3d 49 fc 39 3e 70 d4 c4 bd
       0.30541405 0.051669218 0.18162645 -0.09610832
000240 0c 41 f6 bd ea ad c7 3e 79 d3 8b 3c ad 34 c4 3d
       -0.120241255 0.38999873 0.017068611 0.095803596
000250 fe af 11 3e e7 e3 3f be 73 dd 41 3e 10 da 94 be
       0.14227292 -0.18739282 0.18932132 -0.29072618
000260 34 e5 06 bd 94 ac 19 3e 51 f1 6a be 9b 6d 48 3d
       -0.03293343 0.1500724 -0.22943617 0.048932653
000270 f3 67 8b be 92 54 1e be cb 38 4e bd 5e ba 0a bf
       -0.27227744 -0.15461949 -0.05034713 -0.54190624
000280 40 90 64 be 4b e6 38 3d 9f c4 80 be 26 c5 e1 3d
       -0.22320652 0.0451415 -0.2515001 0.11023931
000290 7f d4 83 3c e0 01 01 3e 8a a5 cf 3c 78 6e a9 ba
       0.016092537 0.12598372 0.02534749 -0.0012926599
0002a0 ac 8e 62 3e aa 2b d8 bd c9 48 5f 3f 83 c1 6e 3f
       0.22124738 -0.10555203 0.87220436 0.93264025
0002b0 d6 76 26 3f 4b 78 74 3f 0d c3 e2 3e 12 e8 11 3f
       0.6502508 0.9549605 0.44289437 0.56994736
0002c0 1a ca 16 3f e5 dd cc 3e 4d 26 ca 3e 22 5a 78 3f
       0.5890213 0.40013042 0.39482346 0.9701253
0002d0 25 23 00 3e e7 e5 01 3f b1 76 2d 3e eb 00 e7 3e
       0.12513407 0.5074143 0.16939808 0.45117888
0002e0 d4 1c b8 3e 4b 46 03 3f 4d a8 24 3e f6 af 45 3f
       0.35959494 0.51279134 0.16079827 0.7722162
0002f0 f5 f0 01 3e d3 63 aa 3e 64 2e d2 3e 74 23 ae 3e
       0.12689574 0.33279285 0.41051018 0.34011424
000300 b6 33 62 3f 7c a3 90 3e 3d 71 d1 bd 6c 62 9b 3e
       0.88360155 0.2824973 -0.102266766 0.30348527
000310 b6 05 24 be d6 04 53 3c dd 3d 59 3e 2c 09 7c 3e
       -0.16017804 0.012879571 0.21215005 0.24612874
000320 cb 87 c2 3e 52 55 9a 3e ad d9 08 bf af b7 95 bc
       0.37994227 0.3014322 -0.53457147 -0.018276064
000330 4f 8d de be 94 5a 53 3d fc 0e 7e be 42 a7 03 3f
       -0.43467185 0.051600054 -0.24810404 0.5142709
000340 63 47 0f 3d 0e 90 06 3f c0 16 2e bc 04 3e b5 3d
       0.03498019 0.5256356 -0.010625541 0.08849719
000350 99 4c 25 3f 32 e2 52 bf 36 ea 21 3f 8b 22 20 bf
       0.64570004 -0.82376397 0.63248 -0.6255271
000360 2c be 84 3f c2 49 bc be 02 b2 0a 40 25 25 5f be
       1.0370536 -0.36775023 2.1671147 -0.21791513
000370 98 a1 98 be f4 08 59 be 1e 8a 99 be 04 24 c8 bd
       -0.29810786 -0.21194822 -0.29988188 -0.097724944
000380 12 6c 7c be 89 42 fb bc 53 5a 39 be b6 4a 53 3d
       -0.246506 -0.030671375 -0.18100862 0.05158492
000390 67 5e 91 be 79 9b 1e be 70 4c 4e be 7a d8 78 bd
       -0.28392336 -0.15488996 -0.20146346 -0.060753323
0003a0 70 8e d5 3b 1a d8 c3 bd 7e 04 93 3e 9b 16 65 be
       0.006517224 -0.095627025 0.28714365 -0.22371905
0003b0 18 b8 3c be 0f b6 96 bd 02 e8 84 be 26 2b 10 bd
       -0.18429601 -0.07358944 -0.25958258 -0.0351974
0003c0 90 81 91 be ea a0 5d bd d7 66 53 bd bc 1c 0e be
       -0.2841916 -0.054108538 -0.051611748 -0.13878149
0003d0 a5 fa c7 bd 77 25 49 3d 9f ec 0e be c6 c1 b2 3d
       -0.097646035 0.049107995 -0.13957451 0.087283656
0003e0 12 4d 6e be 2b 6d 19 3c 59 62 0c be 2c 36 89 3c
       -0.23271587 0.009364407 -0.13709392 0.016749464
0003f0 08 f9 5c 3e e0 d9 69 bc 13 ae 5e 3f e1 52 01 bf
       0.21579373 -0.014273137 0.86984366 -0.5051709

sequential/dense_1/MatMul f4 [10, 20]
000000 ed 7a a2 bd 96 80 5f bf 3b c4 22 bc 7e ce c4 bd
       -0.079336025 -0.8730558 -0.00993448 -0.09609698
000010 ac f9 d8 bd f9 85 45 3e 15 90 ff 3e 41 de 22 3f
       -0.10594496 0.19289388 0.49914613 0.6362038
000020 74 ce 17 bf 3e b4 0c 3f c1 7e ca be 56 a2 38 3f
       -0.592994 0.5496253 -0.3954983 0.72122705
000030 ef 67 ce bf 03 4c 90 3e 71 20 bb 3e 36 5c 81 bc
       -1.6125468 0.28182992 0.36548188 -0.01579104
000040 db 6e f7 3e 70 25 26 c0 44 ba 2a 3e 04 98 cf bf
       0.48326764 -2.596035 0.16672617 -1.6218266
000050 83 58 36 bd 8d d9 99 3e 30 54 c2 3d cf 5c 90 be
       -0.044518005 0.3004879 0.09488714 -0.28195807
000060 48 1f e3 bd bd 32 cb bf 0e e4 ad be 7d e8 e9 3e
       -0.11089951 -1.5874859 -0.33963054 0.45685187
000070 5e fa 7e bf d9 6b f0 3e 33 ac fa 3e 1d 5d f3 3e
       -0.9960078 0.4695728 0.48959503 0.47531977
000080 ab d3 4a 3e ac 1e 2d 3f 3a 13 1d 3f e5 bd 14 3f
       0.19807307 0.67624927 0.6135746 0.58102256
000090 dd e0 89 bc 06 df 4a 3e c4 27 f7 3d cf eb 98 3e
       -0.016830856 0.19811639 0.120681316 0.29867408
0000a0 dd c7 00 bd 94 65 4b 3f 3d 3c ba 3e 9b 76 da bc
       -0.031440604 0.7945187 0.36374083 -0.026667884
0000b0 3d c0 3c be 08 9e 64 3d a0 fa f5 3e 4d 7f 19 3f
       -0.18432708 0.055814773 0.48042774 0.5995987
0000c0 af 29 02 bf 40 bb 7c 3f e4 66 bb 3e 74 91 8c be
       -0.50844854 0.9872322 0.36601937 -0.27454722
0000d0 ce ec 41 3f 1d a9 bb 3e f7 f9 8a 3d 5d e6 8a 3e
       0.7575196 0.3665246 0.06785958 0.27128878
0000e0 68 a9 81 3e 83 19 bb 3e 82 e6 f7 be 91 c7 73 3f
       0.2532456 0.365429 -0.4841805 0.9522639
0000f0 62 cb de 3e ae 15 5d 3e 63 0f fc 3e ac 3b e2 3c
       0.43514544 0.21590301 0.4923049 0.027616344
000100 71 7d f2 3e a6 82 2b 3f 7f 04 1f be e3 2e 2a 3e
       0.4736133 0.6699623 -0.15529059 0.16619448
000110 a8 60 f9 bd 30 53 08 3f 08 cc 0c be a2 39 e9 3e
       -0.12176639 0.53251934 -0.13749707 0.45551783
000120 b1 ea f8 bb cc 75 2a 3e a9 53 7b 3e 0a 6f 69 3f
       -0.007596337 0.16646498 0.24543633 0.9118506
000130 ba 5c c1 3f 85 08 00 3e 3a 6d b0 3f 00 bd a4 3d
       1.5106423 0.1250325 1.3783333 0.080438614
000140 91 c6 81 3d cd 81 15 3c b2 be b3 3e a2 1c a1 3e
       0.06336702 0.009125185 0.35106426 0.31467158
000150 e8 33 4a 3e 46 46 42 3f b8 eb 03 be 8e 8d 11 3f
       0.19746363 0.7588848 -0.12882888 0.5685662
000160 a7 c4 e3 3e d9 b6 5c 3f f2 03 c4 3e f4 e6 9f bf
       0.4448597 0.86216503 0.3828426 -1.2492356
000170 2c c9 0b be 17 cb 82 bf 4d 9f 20 bf 96 c3 81 3f
       -0.1365096 -1.0218228 -0.62743074 1.0137813
000180 c8 2a 45 bc 85 f2 94 bc 52 01 0e 3f da ac 16 3e
       -0.012034126 -0.018182049 0.55470765 0.14714375
000190 35 73 80 3e 93 5a 31 bf be 4a b3 bf f9 f8 84 3d
       0.25087896 -0.6927883 -1.4007185 0.064928
0001a0 6e 12 59 3e 77 57 3f be 3b f5 1d be 63 76 31 bf
       0.21198437 -0.18685709 -0.15425579 -0.6932127
0001b0 4d 89 72 3e 7e 5c d8 be 5e 48 cf 3e 9a 8a a9 3c
       0.23685189 -0.42258066 0.404849 0.020695973
0001c0 e9 a0 e1 bf cb 0c d8 3c ba a2 01 3e ff d0 0a be
       -1.7627231 0.026373288 0.12659732 -0.13556288
0001d0 db d7 87 3e 5d 1a 1d c0 ab 00 0e bf 9b cd 8f bf
       0.26531872 -2.454734 -0.5546977 -1.1234621
0001e0 e7 1b 9e 3f 65 d6 f1 3d 49 06 52 bf 06 8c a8 3f
       1.2352265 0.11808471 -0.8204084 1.3167732
0001f0 c9 81 8a 3f 75 11 e4 3e e8 cf 46 3f 53 ec 09 3f
       1.0820857 0.4454457 0.7766099 0.5387623
000200 64 62 b7 3f ae bd 92 3e 19 db 5e 3f 5c 19 80 3f
       1.4326901 0.2866034 0.87053066 1.0007739
000210 10 74 54 bc 9a 3d 26 3e 5b 7c 2c 3e c5 c9 c3 ba
       -0.012967125 0.16234437 0.16844313 -0.0014937451
000220 69 0f 21 3f 4e 0e aa bd 03 36 48 3b f9 ac f4 3d
       0.6291414 -0.0830351 0.0030549772 0.119470544
000230 f7 2f ff be 8a 51 8c 3f 42 4f d6 3f 69 97 97 be
       -0.49841282 1.0962384 1.6742938 -0.29607704
000240 ed 1e 62 be e0 f8 b3 3e e9 dd 6c be 6d 57 9c 3f
       -0.2208211 0.35150814 -0.23131527 1.221418
000250 29 61 ef 3d 84 03 25 3e 15 42 74 3f 36 4a 56 3e
       0.11688454 0.16114622 0.95413333 0.20926747
000260 74 1e 63 be e2 35 e3 bd ef 0f 6b 3c 60 ef 66 3e
       -0.22179586 -0.11094262 0.014347061 0.22552252
000270 c9 cc 8e 3e cd fc 15 bd 4c f9 7c 3e 91 06 64 3e
       0.27890614 -0.036618043 0.24704474 0.2226813
000280 bd c3 27 be 64 23 7e 3e 47 a5 23 bf 28 fb 7a be
       -0.16383262 0.24818188 -0.6392407 -0.24509871
000290 a1 39 8a be ee d9 b2 3e 84 82 00 be 05 a2 38 bd
       -0.26997092 0.34931892 -0.12549788 -0.04507639
0002a0 11 01 ae 3f 14 05 52 3e 99 9b 93 3e cd fa 5e be
       1.3594075 0.2050975 0.2882965 -0.2177536
0002b0 db 25 3e 3f d9 13 02 bf 40 1d a6 be 12 5e 0a c0
       0.7427651 -0.50811535 -0.3244419 -2.1619916
0002c0 33 fb 82 bd 7f 9a d3 3e 3f 7e b7 be e3 54 0a 3f
       -0.06395569 0.4132881 -0.35838506 0.54035777
0002d0 34 f8 b9 3e eb af 23 3f 81 92 88 3f a2 10 f7 3e
       0.36322176 0.63940305 1.066971 0.48254877
0002e0 cf fa 7a 3e 06 ff 3e bc 09 64 b0 3e 5d a2 c2 be
       0.24509738 -0.011657482 0.3445132 -0.38014498
0002f0 6c fc 6e 3f 9a a6 1d bf 30 37 72 be 63 bf b0 3d
       0.93353915 -0.6158234 -0.23653865 0.08630254
000300 33 1c 5c 3f a7 92 12 3f 9b 1a 9e 3e 2e d5 47 3f
       0.8598053 0.57255024 0.30879673 0.7805966
000310 6a b5 2f 3e d7 5f 2c 3f 73 4d 16 3f 74 c0 ee 3e
       0.17159048 0.6733374 0.5871193 0.46631205

sequential/dense_2/MatMul f4 [12, 10]
000000 b5 7e 95 be 96 08 9f be 62 1b 2e 3e 81 ea 30 3f
       -0.29198232 -0.31061238 0.17002633 0.69107825
000010 5c 07 74 bc a1 9d fb 3e 82 44 21 3e e3 10 14 bf
       -0.014894333 0.491437 0.1574879 -0.5783827
000020 82 8a 51 be 30 40 44 3f f3 34 12 be 9e 3f dc 3e
       -0.20462993 0.7666044 -0.14278011 0.43017286
000030 22 cd b4 3e ab b2 8f 3e 86 e9 df bd 44 3e 02 bf
       0.35312754 0.28066 -0.10933213 -0.5087626
000040 fc 09 62 3f 09 c9 99 bd 8c 71 e0 be d8 05 21 bf
       0.88296485 -0.075090475 -0.4383663 -0.6289954
000050 19 8c db 3d c3 af 8c 3e 40 74 0f bf 76 64 e7 be
       0.10720081 0.27477846 -0.5603676 -0.45193833
000060 5c 8e 85 be 9d cf c5 3f ea b5 33 3f 2c 98 b4 be
       -0.26085174 1.5453984 0.70199454 -0.35272348
000070 0b 7d d0 3e 0f d4 24 bf 33 c7 8c be 4a c3 4c 3f
       0.407204 -0.64386076 -0.27495727 0.7998549
000080 0f 35 01 3f cb 25 8d bf 12 86 b2 bf e0 19 62 be
       0.50471586 -1.1027158 -1.3947165 -0.22080183
000090 f0 31 f2 bf 42 9a b9 3d 7e b0 87 be 14 25 7c 3e
       -1.892149 0.090626255 -0.2650184 0.24623519
0000a0 cd dd 45 bf da ec 84 bf 27 1a de 3d 06 e3 c0 bf
       -0.77291566 -1.0384781 0.10844832 -1.5069282
0000b0 9a 27 96 3e 6b 8e 29 3d b6 46 49 be 52 83 99 bf
       0.2932709 0.041395586 -0.1965588 -1.1993201
0000c0 da 4d 89 3f 63 69 24 bf d1 da 05 bf e0 82 6c bf
       1.0726883 -0.6422331 -0.5228701 -0.923872
0000d0 a1 c6 cd 3e ab 13 c0 bf a5 96 81 3e 1b 03 c6 3c
       0.40190604 -1.5006002 0.25310245 0.024171403
0000e0 16 4b ad bc e9 19 a4 bf 37 51 6f 3e 01 f4 a5 3e
       -0.021153968 -1.2820407 0.23370825 0.32412723
0000f0 2c c2 ad 3f a2 ba c0 be 0a 7c 5d be 30 03 41 3f
       1.3574882 -0.3764239 -0.21629348 0.7539549
000100 ac f3 7a be 83 89 3c bf 0b 84 04 be 3c 6d ca be
       -0.24507016 -0.73647326 -0.12940995 -0.39536464
000110 b8 55 b8 bf 8a f9 61 bf f3 10 be be 16 77 a5 bf
       -1.4401159 -0.8827139 -0.37122306 -1.2926967
000120 8d 6b 09 3d 45 82 bd bf 90 60 a7 3e a3 c7 2f 3d
       0.033549834 -1.480538 0.3269086 0.042914998
000130 c9 ec 9e bf c9 cc 4e 3e b6 07 7d 3f 27 d4 82 3e
       -1.2416011 0.20195307 0.9883989 0.25552484
000140 b2 42 cd be 73 ec a3 3c f7 91 b3 bf 0a 1b 10 3e
       -0.40089947 0.020010209 -1.402892 0.14072815
000150 de 97 7f bf b1 bf b8 be 3a ef 1b 3f 2d fa b3 bf
       -0.99841106 -0.3608375 0.60911906 -1.4060723
000160 9e f1 f3 be 77 5d 46 3f 16 2f 05 bf 21 38 8b 3f
       -0.47645277 0.77486366 -0.5202497 1.0876504
000170 68 c2 91 be de 98 55 3f f6 18 0e 3f 13 00 91 bd
       -0.28468633 0.8343638 0.5550684 -0.07080092
000180 1e 19 88 bf 53 c6 4f 3f 1a 50 8c 3e 64 5b 3b bf
       -1.0632665 0.81161994 0.27404863 -0.73186326
000190 fd 08 1e bf 85 3f c6 3e 0e 65 a1 bf 1c fe f7 be
       -0.61732465 0.38720337 -1.2608964 -0.48436058
0001a0 56 18 19 3f 93 b7 4f be 1b 08 23 3d 46 bb 4f 3f
       0.5980276 -0.20284872 0.03980265 0.8114513
0001b0 4c a7 c5 bd 99 2c f1 3e de b8 8b be 8f 5f c9 be
       -0.0965105 0.47104338 -0.2728948 -0.39330718
0001c0 36 06 d6 3e 1f 4e 38 bf 05 14 ae 3e c1 60 89 be
       0.41801614 -0.71994203 0.3399965 -0.2683163
0001d0 89 8c 22 bf 64 7f 7e 3f 96 22 f6 be fb cf 29 bf
       -0.6349569 0.9941313 -0.48073262 -0.6633298
